atlas_dnn/models/dnn.pt (torch, 5413 bytes, 5 tensors)

0.weight f4 [32, 18]
000000 7e 29 15 3e db 9e 32 bf 9a 90 0f 3d b6 45 f0 bd
       0.1456661 -0.69773644 0.035050012 -0.11732046
000010 c6 65 e0 bd b5 ca 34 3f fc 4d 99 bc 59 12 6c 3e
       -0.10956912 0.70621806 -0.018713944 0.23053874
000020 c7 40 b1 bd e5 13 4a bc 6f 3c 1e 3d 53 36 37 3d
       -0.086549334 -0.012333845 0.038631853 0.044729542
000030 7d 8c d1 3c 8e b0 52 bc 8a 00 82 bc f8 93 af bb
       0.025579685 -0.012859477 -0.015869398 -0.0053582154
000040 02 7c a3 3d 30 a9 c5 bc e8 c6 1a bd 73 74 86 3e
       0.07982637 -0.024128526 -0.037787348 0.2626072
000050 2c c9 bf 3b 96 83 00 3d bf d2 2a be 21 82 a9 3e
       0.005852839 0.03137549 -0.16681956 0.33107093
000060 a9 91 08 bd 08 47 a4 bb 7a a6 9d 3d e5 03 95 be
       -0.033342037 -0.0050133504 0.076977685 -0.29104534
000070 58 74 1b 3e 86 ef e3 bd 00 c1 82 be 24 d3 60 3e
       0.151811 -0.1112967 -0.25537872 0.21955544
000080 c5 5c 5a 3e d6 e9 f1 3d 23 99 66 bd b4 e4 48 3d
       0.21324451 0.11812179 -0.056298386 0.049046233
000090 a6 5a 54 bd 34 84 18 3e 0a 7f 66 be 47 24 00 be
       -0.05184426 0.14894181 -0.22509399 -0.12513839
0000a0 2c f5 3e be ee 45 00 3e 87 c1 63 bd 11 9b 58 bd
       -0.18648213 0.12526676 -0.055604484 -0.052882258
0000b0 cd e5 48 3d c6 8e 9f be 17 6d d1 3d a7 a1 46 3d
       0.04904728 -0.31163615 0.10225885 0.048494007
0000c0 7b d6 8f be 9a 0f cc bb 2e 10 50 3e 9f 36 a1 be
       -0.28093323 -0.006227446 0.20318672 -0.31486985
0000d0 e4 56 2e be 61 80 e2 3c fb 38 62 be 40 43 24 bf
       -0.17025334 0.027649106 -0.22092049 -0.64165115
0000e0 15 f3 55 3e 14 d5 2b be 96 1d 3c be a9 5f 28 bf
       0.2089351 -0.16780502 -0.18370661 -0.65770966
0000f0 e9 fe 3b 3e bf 82 85 bd 4c 8a 12 bd ab 1f b4 3e
       0.1835896 -0.065190785 -0.03577642 0.3518041
000100 cf c6 f6 bd 51 76 e7 3d 78 4f 1f bf 44 5c 69 3e
       -0.120496385 0.11301864 -0.62230635 0.22789103
000110 86 e2 79 bd 08 ad 23 be 6b 68 aa bd fe c2 55 3e
       -0.061007045 -0.15983975 -0.083206974 0.20875165
000120 b3 32 23 be 8c 61 04 bf 7d 01 00 be 56 16 51 bd
       -0.15937309 -0.51711345 -0.12500568 -0.05104669
000130 4f c5 0f be 7b 11 32 3f 31 e5 a8 3d f5 97 83 bd
       -0.14040111 0.69557923 0.0824684 -0.06425468
000140 3d 63 69 3d 46 57 1a bd 71 0e 20 3d a3 31 85 be
       0.056979407 -0.037680887 0.039076272 -0.26014432
000150 4e 7c ec 3e 34 10 09 bd 6e d5 af bd 9a 03 55 be
       0.46188587 -0.033462718 -0.0858563 -0.20802155
000160 99 fd 49 be 0d 4b 18 bd 09 e4 9b 3d 45 da d7 3e
       -0.19725646 -0.03718095 0.07611854 0.42158714
000170 86 27 93 3e 21 61 d2 3d ba ae 4a 3d 54 05 c3 3e
       0.2874109 0.10272432 0.04948304 0.38090003
000180 39 66 6c 3e 92 33 5f 3e 63 4d 91 3c b4 ff be be
       0.2308587 0.21797016 0.017737096 -0.3730446
000190 fc 79 08 be ed a4 af bd ea 26 02 bd 26 2c 1e 3d
       -0.13327783 -0.08576379 -0.031775393 0.038616322
0001a0 35 6c 6d be 85 0e 11 3e ad ef ef bd a8 02 03 3e
       -0.23185809 0.14165695 -0.117156364 0.12793982
0001b0 d8 0a 4f 3e 91 13 0d bf 9c 2a 75 be 3e 6e ec 3d
       0.2021898 -0.5510798 -0.23942035 0.115444645
0001c0 65 0d bb 3d 25 c2 37 3f e0 23 17 3e 14 e6 5e 3d
       0.09133414 0.71780616 0.14759779 0.05441864
0001d0 98 a8 ef bd 4c 27 64 3c 1f 6c 99 bc 8d a2 58 be
       -0.117020786 0.013925385 -0.018728314 -0.21155758
0001e0 85 3d e0 3d 35 af e2 bc 94 95 c6 bd 53 64 a7 bd
       0.10949234 -0.027671436 -0.096964985 -0.08173432
0001f0 77 f7 9c 3e 71 1d 0f 3d 83 8e 92 3e 6a 14 82 3e
       0.3065755 0.034940187 0.28624353 0.254062
000200 e8 47 0c 3f 07 12 b0 bd b6 7d 3f 3e ec 7c 8f be
       0.5479722 -0.085971884 0.18700299 -0.28024995
000210 b7 58 e3 be 7e 26 68 3e 4d b4 a6 be 7e 23 8c 3c
       -0.44403622 0.22670934 -0.32559434 0.017106768
000220 02 b2 33 3e 49 5a 92 be 4d ef 11 3e 81 6a 78 3c
       0.17548373 -0.28584507 0.14251442 0.015162111
000230 97 00 bb bd ab 98 fc bd ee c4 72 3e 0f 65 b6 bd
       -0.09130972 -0.123338066 0.23707935 -0.08905994
000240 2c f3 38 3e f9 ec e4 3e d4 03 8a be 0e 77 87 be
       0.18061513 0.44712046 -0.26956046 -0.2645802
000250 3d b9 b8 bd ac b6 d8 be 52 8b 55 3e 53 aa 4f 3e
       -0.090197064 -0.42326868 0.20853928 0.20279817
000260 5f 7a b5 be b0 ef 36 bd d8 36 c6 be c2 2e 37 be
       -0.35444924 -0.044662178 -0.38713717 -0.1788893
000270 fe 0c 48 3e 74 e9 5d 3d 0e b5 83 3e 51 01 b8 bc
       0.19536206 0.054177716 0.2572407 -0.022461565
000280 5f 97 2b 3d ef 79 74 be 4a b0 bc be 54 4b ab be
       0.041892406 -0.23874639 -0.36853248 -0.33455908
000290 62 e4 c0 3c 52 6c a6 be 0d bc 81 be e9 d6 9f be
       0.023546401 -0.32504517 -0.25338784 -0.3121865
0002a0 eb 0c 91 3d f8 dc 9d be 6f 8b 1e bf 70 29 a6 3e
       0.07082542 -0.30832648 -0.6193151 0.3245349
0002b0 08 21 d0 bb d0 43 1b 3e 2c c5 1a bf 33 8b 10 3e
       -0.006351594 0.15162587 -0.6045711 0.141156
0002c0 78 15 f4 3c 06 4c 0c be a4 70 7e 3c 8d 86 11 3c
       0.029795393 -0.13700876 0.015529785 0.008882177
0002d0 19 85 6a 3e 63 cc 25 bf b7 29 78 3d c4 50 e0 bd
       0.22902335 -0.64764994 0.060586657 -0.10952905
0002e0 65 6b 4f 3e 93 49 00 3f 5c af 97 be 70 1d 64 3d
       0.20255812 0.50112265 -0.29625976 0.055692136
0002f0 16 d9 ab be f7 39 ab bd 63 bf c9 be 2e a0 9e 3c
       -0.3356406 -0.08360665 -0.3940383 0.019363489
000300 52 3f 17 3e 19 15 5e bc 0f 6a 99 3e a3 2b 73 be
       0.14770249 -0.013554835 0.2996373 -0.23747115
000310 62 58 1b 3e f9 60 4f 3e 54 50 2c be 4b 01 2f bf
       0.15170434 0.20251836 -0.16827518 -0.6836135
000320 ca ae d7 3d c9 77 9f bd 51 5c e2 bc 10 f1 0c bf
       0.10531385 -0.07786519 -0.02763191 -0.5505533
000330 25 12 33 bd c4 25 8a 3d 62 5e f1 bd bf 7c 17 3f
       -0.043718476 0.067454845 -0.1178558 0.5917472
000340 ba 3a 86 bd c9 6b 83 be 53 a9 93 be d8 48 35 3e
       -0.0655417 -0.2566817 -0.28840122 0.17703569
000350 bd 3c 29 bd 19 43 6e 3d 17 1c 48 be 3a 54 0d 3d
       -0.04131769 0.058169458 -0.19541965 0.034504153
000360 20 8c 20 be 46 02 ee 3e 6c 06 10 bd 23 2d 6f be
       -0.15678453 0.4648611 -0.035162374 -0.23357062
000370 81 80 ac be b6 3b b2 3e 34 f0 dd 3d cd 77 42 be
       -0.3369179 0.3481118 0.10836831 -0.18991013
000380 42 8d 0d bf 21 ea e9 be f4 31 ad bc 11 ff 2a be
       -0.5529367 -0.4568644 -0.021141984 -0.16698863
000390 ad 39 04 bf 07 a6 0b be 20 5c da bc cb 99 68 3d
       -0.51650506 -0.13637553 -0.026655257 0.056787293
0003a0 74 e0 45 be d3 23 87 bc 4b 11 f6 3d 84 94 1a 3f
       -0.19323903 -0.016496575 0.12015017 0.60382867
0003b0 98 71 ba be 7d 81 66 bd 20 23 42 bc bb 4a 2c bf
       -0.3641479 -0.056275833 -0.011849195 -0.6730153
0003c0 cc 93 9e 3e db 9b 3f 3d 10 fa 20 be 91 a1 82 bd
       0.30972135 0.046779495 -0.15720391 -0.063784726
0003d0 7c 47 1c be ef 1b cd bd e3 61 1e 3e 74 8b d8 bc
       -0.15261644 -0.100150935 0.15467028 -0.026433684
0003e0 b0 4b 94 3e 82 3a 8b be 18 8b 73 3e df 5a f2 3d
       0.28963995 -0.27193075 0.23783529 0.118337385
0003f0 6c f3 81 be b4 45 ee 3d e4 17 b9 be ee f8 68 be
       -0.2538103 0.116343886 -0.3615104 -0.22751209

0.bias f4 [32]
000000 5e 18 8d bc 36 76 3f bd d7 59 25 be 19 d8 9d 3d
       -0.017223533 -0.046743594 -0.16147552 0.07707233
000010 ac b2 94 3e c0 89 3d be 46 db a2 3e 12 c3 03 3e
       0.29042566 -0.18509579 0.31807917 0.12867382
000020 98 20 ad 3e 8c c0 44 be 78 6f 10 3e 76 3e a8 be
       0.3381393 -0.19214076 0.14105022 -0.32860154
000030 97 71 01 be 70 cc ed 3d 11 d8 48 3e 6c 1c f8 bc
       -0.12640987 0.11611259 0.19613673 -0.03028699
000040 cb f5 16 3d 9e d4 87 bc ef ef a9 3e 9e a7 86 3d
       0.0368555 -0.016580876 0.33190867 0.06574939
000050 49 aa f4 bd 61 a6 94 bd 0b 28 45 3d bf 40 0a 3c
       -0.11946542 -0.07258297 0.04813389 0.008438288
000060 dc fc b5 bd 82 04 13 3e ab 28 84 be e5 33 2e bc
       -0.0888612 0.14357188 -0.25812277 -0.01063249
000070 e3 83 09 3e 1a 7b 54 3d 10 ec 5b bb 71 13 05 3e
       0.13429217 0.05187521 -0.0033557452 0.12995698

2.weight f4 [1, 32]
000000 ee 76 cb be f2 d7 83 3d b8 dc 55 3d ed 2a 89 3e
       -0.39739174 0.06437673 0.052212447 0.26790562
000010 87 c7 b1 be 4b 21 12 3e 81 43 ae be 59 72 c2 be
       -0.3472254 0.14270513 -0.34035876 -0.37977865
000020 3a 3a 6a be c3 7d 93 3e 85 d4 9f be c9 35 e6 3e
       -0.22873774 0.28806886 -0.31216827 0.4496291
000030 b6 6b f9 3e 59 a5 d6 be fb d5 70 3e 7f e8 64 3e
       0.4871499 -0.41923025 0.23519127 0.22354315
000040 e5 85 fc 3e 7f ee b4 3e 4b f6 94 be 82 3f 7b be
       0.49320903 0.35338208 -0.29094157 -0.24535945
000050 a2 bb 98 3e 74 61 ab 3e 75 1f dd be 3e 6c 11 be
       0.29830652 0.33472788 -0.43188062 -0.14201447
000060 c0 11 95 3d 11 19 9a be 09 88 a3 3d cd a8 0a 3e
       0.07278776 -0.3009725 0.07984931 0.13540955
000070 5f 66 47 3e 55 b5 c3 be d7 6c 9f 3e 68 f3 a1 be
       0.19472645 -0.38224283 0.31137726 -0.31631017

mean f4 [1, 18]
000000 af f9 3f 42 66 32 25 3b 44 f9 8a 3c 4a 1b aa 42
       47.99383 0.0025207042 0.016964562 85.0533
000010 61 4e 22 42 c5 de 86 3b 9b 45 76 bc 09 65 97 42
       40.57654 0.0041159117 -0.015031244 75.697334
000020 e5 7e a2 42 91 59 2a 3b d0 92 4f 3c 94 1c 21 43
       81.24784 0.0025993327 0.01266928 161.11163
000030 05 3f 2d 42 c6 09 d8 3b 4f 9b 68 3c 86 10 b4 42
       43.311543 0.006592962 0.014197185 90.03227
000040 f2 19 91 42 a4 1e 84 bc
       72.550674 -0.016127892

std f4 [1, 18]
000000 74 1d 0a 42 68 93 91 3f 3f f4 e7 3f 16 84 9c 42
       34.528763 1.137311 1.8121413 78.25798
000010 dc b0 f5 41 a7 05 98 3f b1 fb e7 3f 6f e8 95 42
       30.711357 1.1876725 1.8123685 74.95397
000020 2b d5 67 42 34 65 9f 3f 67 43 e8 3f f3 8d 24 43
       57.95817 1.245276 1.814557 164.55449
000030 06 2d ec 41 83 f0 a7 3f c0 dd e7 3f ca 5a a6 42
       29.521984 1.3120273 1.8114548 83.17732
000040 46 02 2f 42 02 6e e8 3f
       43.75222 1.8158572
