atlas_dnn/models/dnn_best.pt (torch, 5729 bytes, 5 tensors)

0.weight f4 [32, 18]
0	0x3d8eee60	0.0697906
1	0xbd14d9ce	-0.036340527
2	0xbfa75873	-1.3073868
3	0xbc57c8b2	-0.013170408
4	0x3d3f711f	0.04673874
5	0x3c2fb17e	0.01072347
6	0x3fa762a2	1.3076975
7	0x3c93d3bc	0.018045299
8	0x3bd84796	0.0066003306
9	0x3b82608d	0.003978795
10	0x3c92e6cf	0.017932324
11	0xbd73e49a	-0.059544183
12	0x3db51dc2	0.088435665
13	0x3b86fdba	0.004119602
14	0xbcef8621	-0.029238762
15	0xbd2a950e	-0.041646056
16	0x3c96eeab	0.018424353
17	0x3b92e543	0.0044828965
18	0x3e6e761c	0.23287243
19	0xbfe1f1f4	-1.7651963
20	0xbd21f534	-0.039540485
21	0xbae2674e	-0.0017273219
22	0x3e590105	0.21191795
23	0x3fd71555	1.6803385
24	0xbaecb2fd	-0.0018058714
25	0x3b9bdd16	0.00475658
26	0xbd133b74	-0.03594537
27	0xbca6b8d8	-0.020351812
28	0x3d3e76f4	0.04650016
29	0xbdc310f4	-0.09524718
30	0x3e887a0f	0.26655623
31	0xbdafb61d	-0.08579657
32	0xbdd5332f	-0.10410153
33	0xbe075e54	-0.13219577
34	0x3d52cc30	0.05146426
35	0xbcb4458a	-0.022005815
36	0x3e31e033	0.17370681
37	0x3c65774a	0.0140054915
38	0x3fce81b4	1.6133332
39	0xbc01634a	-0.0078972075
40	0x3e0a944a	0.1353313
41	0xbc829a00	-0.015942574
42	0xbfcbba86	-1.5916297
43	0x3c92e516	0.017931502
44	0x3cec373c	0.028834932
45	0x3c850aec	0.01624056
46	0x3d7f1b8b	0.062282126
47	0xbd846fbd	-0.06466625
48	0x3e086c97	0.13322674
49	0xbcd09537	-0.025461776
50	0xbbd5866b	-0.006516268
51	0xbd84bbd2	-0.064811364
52	0x3b8bfed4	0.0042723212
53	0x3bdf309c	0.0068112146
54	0x3ed63648	0.41838288
55	0xbf8b38b9	-1.0876685
56	0xbab9e8e6	-0.0014183789
57	0xbd99d85e	-0.07511972
58	0x3f2c514f	0.6731157
59	0xbf733d23	-0.9501516
60	0x3dd5973f	0.104292385
61	0xbe163f58	-0.14672601
62	0x3e0a4d47	0.13506041
63	0x3f73cfd3	0.9523899
64	0xbd27f12f	-0.041001495
65	0xbd484f59	-0.048903797
66	0xbb0dd365	-0.0021640894
67	0x3f32ddf8	0.6986995
68	0x3ddb1194	0.10696712
69	0x3da2ce43	0.079494976
70	0xbf1265f1	-0.571868
71	0x3ceb4944	0.02872146
72	0x3eb3c4ce	0.35111088
73	0xbfc7f3c0	-1.5621262
74	0xbe0a3027	-0.13494931
75	0x3c7917ff	0.015203475
76	0x3e7aacbc	0.24479955
77	0x3fcea2d7	1.6143445
78	0xbe487f76	-0.19579872
79	0x3d6118b6	0.054955207
80	0xbd68b300	-0.056811333
81	0xbc682018	-0.014167808
82	0xbea1ebe2	-0.31625277
83	0xbaeb6b4b	-0.0017961053
84	0x3c77da36	0.015127709
85	0x3d8b391c	0.06798002
86	0x3d8b9545	0.0681558
87	0x3c43d872	0.01195346
88	0x3d84acd0	0.06478274
89	0x3e37bb0d	0.17942448
90	0x3eb004d8	0.34378695
91	0xbfded2ea	-1.7408116
92	0x3d9bdfbf	0.076110356
93	0x3cf8782e	0.030330744
94	0x3e8f6cd3	0.28012714
95	0x3fd16542	1.6359026
96	0xbc61a728	-0.013772763
97	0x3c74af61	0.014934392
98	0x3d290aeb	0.041270178
99	0x3abc297a	0.0014355623
100	0x3e1c4971	0.1526239
101	0xbc58c8f2	-0.013231503
102	0x3c25692d	0.010095877
103	0xbdb8183e	-0.08988999
104	0xbc98a4db	-0.018633297
105	0xbd063cbe	-0.032772772
106	0x3da51b2a	0.08061822
107	0xbc35853b	-0.011079128
108	0x3d97b542	0.07407619
109	0xbb951b18	-0.004550349
110	0xbfb11fcc	-1.3837829
111	0xbcd35094	-0.025795259
112	0x3d2c580f	0.042076167
113	0x3b77a672	0.0037788418
114	0x3fb2d47d	1.3971096
115	0x3ca1733c	0.019708268
116	0xbc127cdc	-0.008940902
117	0x3c247a5c	0.010038938
118	0x3c87602a	0.016525347
119	0xbd77ebb9	-0.060527537
120	0x3dbc8279	0.09204573
121	0x3bc3b2b7	0.005972232
122	0xbcb23621	-0.021754326
123	0xbd5d7e54	-0.054075554
124	0x3bf683e8	0.0075230487
125	0xb9a294d2	-0.00031009928
126	0x3eaccd5a	0.3375042
127	0x3fddade9	1.7318698
128	0xbdf6b3fb	-0.12046047
129	0x3c5d79ae	0.01351778
130	0x3e93f6a5	0.28899112
131	0xbfe17448	-1.7613611
132	0xbdca7a17	-0.09886568
133	0x3cf36fea	0.02971645
134	0xbce18cf7	-0.027533038
135	0xbc5b4d2e	-0.0133851
136	0xbdb129c7	-0.086505465
137	0x3d75e9a5	0.060037274
138	0xbd2acef7	-0.041701283
139	0xbcf4d565	-0.02988691
140	0xbdb747c9	-0.08949239
141	0x3d86738c	0.065650076
142	0x3dae132a	0.08499749
143	0x3e4b8f3a	0.19878855
144	0xbe51cfd6	-0.2048944
145	0xbf6d840b	-0.92779607
146	0xbdff2425	-0.12458066
147	0xbd017829	-0.031608734
148	0xbe0a40a3	-0.1350122
149	0xbf4d4c20	-0.8019428
150	0x3dc1cf1c	0.09463331
151	0xbcfb659b	-0.030688098
152	0x3f24efc4	0.64428353
153	0x3fd6f1ad	1.6792504
154	0x3c87ecd6	0.016592424
155	0xbf24072d	-0.6407345
156	0xbed11c51	-0.40841916
157	0x3e9278bc	0.28607738
158	0x3d29edcf	0.041486558
159	0x3b8201db	0.0039675063
160	0xbd8a74ea	-0.06760581
161	0x3d8c9cdd	0.06865857
162	0x3e1d3405	0.15351875
163	0x3c15b006	0.009136206
164	0x3fcb7be3	1.5897182
165	0xbbe0b32c	-0.0068572965
166	0x3e15701e	0.1459355
167	0xbc91c0e9	-0.017792182
168	0xbfc9ee6f	-1.5775889
169	0x3c96533d	0.018350238
170	0x3caa2040	0.020767331
171	0x3c1cc5f1	0.009568677
172	0x3d3cd6bf	0.046103235
173	0xbda4b44c	-0.080422014
174	0x3df77fbe	0.12084912
175	0xbcc5553d	-0.024088496
176	0x3905234a	0.00012697015
177	0xbd523812	-0.051323004
178	0x3c24bcfa	0.010054821
179	0x39f81bd9	0.00047322994
180	0xbeb6f476	-0.35733384
181	0x3b7453dc	0.003728143
182	0x3d63d304	0.055621162
183	0x3d2e362a	0.042532124
184	0xbe7e5618	-0.2483753
185	0x3cf547a0	0.02994138
186	0xbd5411d4	-0.051774815
187	0x3c8c68c1	0.017139794
188	0xc0071ff7	-2.111326
189	0xbcc66c4e	-0.024221566
190	0xbcd23b32	-0.025662992
191	0xbe31d2ae	-0.17365524
192	0xbe953dc9	-0.291487
193	0xbc10a5ba	-0.008828575
194	0x3c3e85a9	0.011628547
195	0xbdd1c099	-0.10241813
196	0x3c7d5efa	0.015464539
197	0xbba7ea0b	-0.0051243356
198	0xbeee2c86	-0.46518344
199	0xbb5918ef	-0.0033126434
200	0xbd5f097e	-0.05445241
201	0xbcf5671b	-0.029956391
202	0xbe7a7e37	-0.2446221
203	0xbb99fcaf	-0.0046993117
204	0x3d834ba3	0.06410911
205	0xbe1328ac	-0.14370984
206	0x3f25dc07	0.6478886
207	0xbd01c92b	-0.03168599
208	0xbdf0dd8e	-0.11761008
209	0x3e36e1f7	0.17859636
210	0xc01f26b6	-2.4867377
211	0x3d0b4a9f	0.03400671
212	0xbc464d9d	-0.012103465
213	0xbd53e30f	-0.05173021
214	0xbf027910	-0.50965977
215	0xbbabde90	-0.0052450374
216	0x3eae548d	0.34048882
217	0xbfd19408	-1.63733
218	0x3de1afd4	0.11019865
219	0x3c32930d	0.010899317
220	0x3e97c5ac	0.29643
221	0x3fe62416	1.7979763
222	0x3e49b2fc	0.19697183
223	0x3c63b930	0.013899133
224	0xbccd22b3	-0.02504096
225	0x3cab77c0	0.020931125
226	0x3e47a8ea	0.1949803
227	0xbdf77d1b	-0.12084409
228	0x3e1360eb	0.1439244
229	0x3de60143	0.112307094
230	0x3cc0ab6a	0.023519237
231	0xbd786a07	-0.06064799
232	0x3d4e01c2	0.050294645
233	0xbe1c60db	-0.15271322
234	0x3f2142c6	0.62992513
235	0x3dc9b42b	0.098488174
236	0x3f7947d5	0.9737523
237	0x3d777972	0.060418554
238	0x3f1090f4	0.5647118
239	0x3cc7323e	0.02431595
240	0x3f5f2123	0.8715994
241	0x3d680cbe	0.056652777
242	0xbe22ed15	-0.15910752
243	0xbd5e1269	-0.054216776
244	0xbe3e3968	-0.18576586
245	0xbdc8cfe1	-0.09805275
246	0x3e317830	0.17331004
247	0x3d8e08d5	0.06935278
248	0xbe7fc733	-0.24978332
249	0xbdcd6605	-0.10029224
250	0x3eeb7136	0.4598481
251	0x3ed431b1	0.41444162
252	0x3f0dfcf7	0.5546412
253	0x3f803281	1.0015413
254	0x3c2bb6e2	0.010480614
255	0xbe97a0fe	-0.29615015

0.bias f4 [32]
0	0xbe35b01c	-0.17742962
1	0xbf3c9228	-0.73660517
2	0xbeeee516	-0.46659154
3	0xbfcc9020	-1.5981483
4	0xbf968569	-1.1759464
5	0xbfaf39a2	-1.3689463
6	0xbe3d2aed	-0.18473406
7	0xbfa6edd3	-1.3041328
8	0xbfb60eaa	-1.4223225
9	0xbee67d1b	-0.45017323
10	0xbff8c0f4	-1.9433885
11	0xbe065990	-0.13120103
12	0xbf94866e	-1.1603525
13	0xc0363805	-2.8471692
14	0xbfd64522	-1.6739848
15	0xbfa93640	-1.3219681
16	0xbf76fd55	-0.96480304
17	0xbe28374b	-0.16427343
18	0x3de3841c	0.11109182
19	0xbf7a0e75	-0.9767831
20	0x3cc18448	0.023622647
21	0xbefc73f4	-0.49307215
22	0xbfa0052f	-1.2501582
23	0xbf20b446	-0.62775075
24	0xbf1df3c8	-0.61700106
25	0xbc0d8ede	-0.008640019
26	0xbfc41cd6	-1.53213
27	0xbe42e8f5	-0.19034179
28	0xbfa9d6a5	-1.3268629
29	0xbf26451e	-0.64949214
30	0xc03c97c4	-2.946763
31	0xc01a0daa	-2.407084

3.weight f4 [1, 32]
0	0xbe1b3a07	-0.15158854
1	0xbeac7b64	-0.3368789
2	0xbe711b7e	-0.23545644
3	0x3e917830	0.28412008
4	0xbef0f5e5	-0.47062603
5	0xbf052499	-0.5200897
6	0xbe116f9a	-0.14202729
7	0xbef207cd	-0.47271577
8	0x3e95d9dd	0.2926778
9	0xbe8032f1	-0.25038865
10	0x3f6edf77	0.9330973
11	0x3e42e6a9	0.19033302
12	0xbed2b7f4	-0.4115597
13	0x3f4443a6	0.76665723
14	0x3ed7795f	0.42084786
15	0x3ec1c01c	0.3784188
16	0x3e9465b8	0.28983855
17	0x3e3eb299	0.18622817
18	0x3e3f4455	0.1867841
19	0x3e5c7cdd	0.21532007
20	0xbe540ba9	-0.20707573
21	0xbe1fc051	-0.15600707
22	0xbef54170	-0.47901487
23	0xbe9502f8	-0.29103827
24	0x3e608ea4	0.21929413
25	0xbe44b40d	-0.19209309
26	0x3eea727b	0.45790467
27	0xbe1317b3	-0.1436451
28	0xbf01d13f	-0.5070991
29	0x3e40700b	0.18792741
30	0x3fcd4481	1.6036531
31	0x3f0a0b58	0.5392356

mean f4 [1, 18]
0	0x423ff9af	47.99383
1	0x3b253266	0.0025207042
2	0x3c8af944	0.016964562
3	0x42aa1b4a	85.0533
4	0x42224e61	40.57654
5	0x3b86dec5	0.0041159117
6	0xbc76459b	-0.015031244
7	0x42976509	75.697334
8	0x42a27ee5	81.24784
9	0x3b2a5991	0.0025993327
10	0x3c4f92d0	0.01266928
11	0x43211c94	161.11163
12	0x422d3f05	43.311543
13	0x3bd809c6	0.006592962
14	0x3c689b4f	0.014197185
15	0x42b41086	90.03227
16	0x429119f2	72.550674
17	0xbc841ea4	-0.016127892

std f4 [1, 18]
0	0x420a1d74	34.528763
1	0x3f919368	1.137311
2	0x3fe7f43f	1.8121413
3	0x429c8416	78.25798
4	0x41f5b0dc	30.711357
5	0x3f9805a7	1.1876725
6	0x3fe7fbb1	1.8123685
7	0x4295e86f	74.95397
8	0x4267d52b	57.95817
9	0x3f9f6534	1.245276
10	0x3fe84367	1.814557
11	0x43248df3	164.55449
12	0x41ec2d06	29.521984
13	0x3fa7f083	1.3120273
14	0x3fe7ddc0	1.8114548
15	0x42a65aca	83.17732
16	0x422f0246	43.75222
17	0x3fe86e02	1.8158572
